data.pth (torch, 19583 bytes, 6 tensors)

l1.weight f4 [8, 354]
00000000: 5d59 f13d a1fa 133f 00d6 093e 10f8 493e
00000010: c30d 6c3e 800d 3e3e 2ce8 393f 4ba9 aa3e
00000020: ae71 26be a26e 34be aa62 2b3f fc74 f53d
00000030: 6c79 cb3f ffbc 203f 205f 2c3e ea98 d63e
00000040: c05c b6bc d8ab 333f 45ec df3c 2c96 e13e
00000050: bb90 863f de53 683e 310d 073e 683e 833f
00000060: 1525 803c f3a7 2d3e e51d a6bd a42e e23e
00000070: e759 cc3e 6529 493f c8ea 073f 3945 a93e
00000080: df26 0b3f 730b d4be 5b96 dc3e 694a 80bf
00000090: 7173 b3be aa11 b03f abde 233d 28e5 0640
000000a0: 038a 643e 7471 343e 0c41 e53e 1df0 d33d
000000b0: c4de 963f bd01 b13f 1af0 9ebe dd38 d5be
000000c0: 5f72 9fbe d6cd b33f d4b4 98be cbd7 68bd
000000d0: c85c b73e 6d1e 84be 9321 4d3f 43a2 483e
000000e0: 4145 543e 93d5 89be 1b70 503f f8c6 b33f
000000f0: a5f0 ae3f 445c ae3f c924 b23f 37f7 623f
00000100: bd02 133e d69c 89bf 843a 84be 2395 f7bd
00000110: 005b 9a3f 3b1b 263f bc03 6c3f b0c4 003e
00000120: cd43 0c40 c688 cfbe 492c 233e 7702 d03e
00000130: 7e08 483f d52f 513f a9a2 abbe e7cf 5c3f
00000140: a6c5 96be ce79 0ebe 5b16 8e3f 7f0a bb3f
00000150: ce3b efbc 9df7 f13f 8c99 b73e 97cc 213e
00000160: 0c45 a0be 985d 6a3f a5e5 133e 8158 083e
00000170: 1545 d13e 63e1 4d3e 2af1 e73e 72c2 e33d
00000180: 8b4f 4d3f f129 1f3f 4196 ed3e 3eec d4bd
00000190: 1267 e53e c8ca 7a3f 54cd 123f 869f 333f
000001a0: c7b6 cb3f c1ab 1a3c 50be 2e3e 157d 043e
000001b0: 7e5e 1e3e c4d1 3c3e ef1a ad3f 4a73 673e
000001c0: 36fd 08be eee7 f03e 4811 14bf 9856 f63e
000001d0: ad67 7c3e 487c b6bf 7ec8 553e bd00 f23e
000001e0: 9853 e33f a378 603f 4e78 c0be 4f25 b73e
000001f0: eb57 903f b660 2e3e 3d40 3b3f ca22 943e
00000200: 72d7 833f 4ef1 013e c5f0 0e3f 29d4 dc3e
00000210: 555a 86be 8fd4 e03f 1ae6 8ebe 2b59 0a3f
00000220: eb2f e0be c58b 083f c2d9 1a3e 6d79 f93b
00000230: aa32 e83e 51eb fb3e e947 4abd 928c e03f
00000240: 6e90 ce3e 214c a5bf 5947 e03f 6c27 c43f
00000250: ad05 a83e 9576 803c 4577 d43f 2e07 b7be
00000260: 6b59 0abf 9d61 95be 78db 9c3e f58e 9ebd
00000270: 3482 463e 8ef4 1a3f 3b58 563f 894a d93e
00000280: b848 8c3f cc79 ad3f d6f1 1ebf 9859 bc3f
00000290: d5fa fa3e c83e a13e f0a8 b13f 3e0f 113f
000002a0: bf48 d6be 4de6 b43f 6aa0 ae3f 5221 ac3f
000002b0: 39b7 59bf aa86 26bf 4f4e 6b3e 93fd b23d
000002c0: f994 00c0 5cc6 ae3f d150 9b3f 7299 933d
000002d0: 91ea 8f3f 3156 c33d 6ffe 16bc 326f 433f
000002e0: e00f 3cbd 2079 453f d2cd 4c3f c1b1 0dbe
000002f0: e74f cebd 74fd 363e c1d8 923e b1cb 9ebe
00000300: 3f11 9ebe d977 4dbc 0729 dcbe 05ec 333e
00000310: 7965 993e 06cc 213f 7ff6 fc3e 98c3 a13e
00000320: 7e42 843c 2703 483e 73d2 a9be 6ba1 8e3f
00000330: 0375 c53f c321 e7bf 0d57 aabe f312 9dbe
00000340: 2354 b5be 6cbc d03f c0a5 bf3e d684 f5bd
00000350: ea1d 0a40 1e63 5a3e 71d3 4f3f f289 f43f
00000360: f617 b43f d448 ec3e ca67 d63e 0394 2cbf
00000370: 4fde f43f 8eac 643f 2928 01be ce53 583f
00000380: 4152 82bf a3eb 93bd 6f25 aa3d 1b4f fa3e
00000390: c9da 2e3e 2629 1b3f b7e7 823e a7f5 f43e
000003a0: a496 da3d 7521 fc3e 9dce 573f a21f af3f
000003b0: f721 92bf 2f9b 51bf 9ff0 e0be d6d0 563e
000003c0: 578c b13f 1c10 f83d f784 d73d 2473 843e
000003d0: 07f6 b33f d90f 873e c14b 633e c6cf 963f
000003e0: 25f8 113e c517 89be fbe3 143e 864d 9c3d
000003f0: f1d3 eabd c6f4 d13d ad3b a8be 5079 6e3f
0.11784623 0.57804304 0.13460541 0.19723535 0.23052125 0.18559837 0.7261989 0.33332285
-0.16254303 -0.17620328 0.66947424 0.119852036 1.589643 0.62788385 0.16833162 0.4191354
-0.022261024 0.7018409 0.027334342 0.44059885 1.0512918 0.22688243 0.13188626 1.025342
0.015642682 0.16958599 -0.08111171 0.4417621 0.3991234 0.7857879 0.5309262 0.33060625
0.5435619 -0.41414985 0.43083462 -1.0022708 -0.35049012 1.3755391 0.040007275 2.1077366
0.22318272 0.17621404 0.4477619 0.10348532 1.1786733 1.3828655 -0.31042558 -0.41644946
-0.31141946 1.4047191 -0.2982546 -0.05684642 0.35812974 -0.25804463 0.80129355 0.19593148
0.20729543 -0.26920757 0.8142106 1.4045095 1.3667189 1.3621907 1.3917476 0.8865847
0.14356513 -1.0750988 -0.25825894 -0.120889924 1.2059021 0.648853 0.921932 0.1257503
2.1916382 -0.40534037 0.15934862 0.4062688 0.7813796 0.8171361 -0.33522537 0.86254734
-0.2944767 -0.13913652 1.1100572 1.4612578 -0.029203322 1.890369 0.35859334 0.15800701
-0.3130268 0.9154906 0.14443071 0.13315012 0.40873018 0.2010551 0.4530118 0.11121072
0.801995 0.6217337 0.46403697 -0.10396622 0.448052 0.9796567 0.57344556 0.7016529
1.5915154 0.009440363 0.17064786 0.1293834 0.15465733 0.18439394 1.3523844 0.22602573
-0.13377842 0.47051948 -0.5783887 0.4811294 0.24648924 -1.4256678 0.20877263 0.47266188
1.7759886 0.8768408 -0.37591785 0.35770652 1.127683 0.1702908 0.73144895 0.28932792
1.0300124 0.12689707 0.55836135 0.43130615 -0.26240793 1.7564868 -0.2790993 0.5404231
-0.43786559 0.5333827 0.1512213 0.007613352 0.45351154 0.4920297 -0.049384985 1.7542899
0.40344566 -1.2913858 1.7521774 1.5324531 0.3281683 0.015681544 1.6598898 -0.35747665
-0.5404269 -0.29176036 0.3063619 -0.07742111 0.19385606 0.6052941 0.8372838 0.42439678
1.0959692 1.3552794 -0.6208776 1.4714842 0.49019495 0.3149321 1.3879681 0.5666388
-0.41852376 1.4132782 1.3642704 1.3447669 -0.850452 -0.6504923 0.22979091 0.08739772
-2.0090926 1.3654284 1.2134038 0.07207002 1.1243459 0.09537924 -0.009215935 0.76341546
-0.045913577 0.7713795 0.80001557 -0.13837339 -0.10073834 0.17870122 0.28680995 -0.3101478
-0.30872533 -0.012540781 -0.4300005 0.17570503 0.2996023 0.6320194 0.49406812 0.3159454
0.016144987 0.19532453 -0.33168373 1.1143011 1.5426334 -1.8057178 -0.3326954 -0.3067852
-0.35415754 1.6307502 0.37431145 -0.11988227 2.1580758 0.21326873 0.8118201 1.9104598
1.4069812 0.46149313 0.4187606 -0.6741335 1.9130343 0.893258 -0.12612976 0.84502876
-1.0181352 -0.072226785 0.08307921 0.48888478 0.17075647 0.6060966 0.2556741 0.47843668
0.10673264 0.49244276 0.8429964 1.3681529 -1.1416615 -0.81877416 -0.4393358 0.20978102
1.3870953 0.121124476 0.10523408 0.25869095 1.4059457 0.26379278 0.22196867 1.1782157
0.14254816 -0.26775947 0.14540093 0.07631974 -0.11466206 0.10251765 -0.3285803 0.9315386

l1.bias f4 [8]
00000000: 44dd 613f f68e 943f cb85 503f 40b4 5d3f
00000010: 1192 f43e 9331 153f 851f 153f 0c4f 943f
0.8822825 1.1606128 0.8145415 0.86603165 0.4776769 0.5827877 0.5825122 1.1586623

l2.weight f4 [8, 8]
00000000: f0aa cbbe 510d e93f b0c0 1340 8d6c 683f
00000010: 9271 afbf bc21 123f 6851 d13e 8ec2 5cbf
00000020: ba6a c93f 7aa2 ad3f ed0d b9be b9b7 8ebe
00000030: 2c8a 2dbf a872 99bf 761c 11c0 962c b43f
00000040: 2074 a0be 2b06 543f 3e6d 09c0 b12f 9040
00000050: eecb 343e 6e86 3d40 11e1 be3f 831f b13f
00000060: e634 8dbf 5f26 1d3e 85a5 c03f 53dd 1d40
00000070: 5971 d4be 6baf 48be 4307 64be 8088 43be
00000080: 9841 3bbd 2085 1cbd c816 33be 94f5 b1be
00000090: d2a1 573e a177 803e 4deb 8cbe 2985 98be
000000a0: 0756 1440 f80a 15bf e007 0740 62c4 abbe
000000b0: f131 1840 1de4 bfbf d6d7 f43f 1da6 ca3f
000000c0: f7c8 52be ca22 4fbe f371 a8be 0130 9bbe
000000d0: b83f 12bd 185b 06bd c6bf 5d3e 480d 7abe
000000e0: 1d01 1d3f db25 0f40 4d70 b4be ce4a d6bf
000000f0: 4dfc dfbf 56a2 0bbf 018d f5be 45a3 a63f
-0.39778852 1.8207189 2.3086357 0.90790635 -1.3706534 0.57082725 0.4088242 -0.86234367
1.5735695 1.3565209 -0.36143437 -0.27874544 -0.6778896 -1.1988115 -2.267362 1.4076107
-0.31338596 0.8282191 -2.1472926 4.5058217 0.17655918 2.96133 1.4912435 1.3837742
-1.1031768 0.15346669 1.5050513 2.4666336 -0.41492727 -0.19598167 -0.22268395 -0.1909504
-0.045716852 -0.038212895 -0.17489159 -0.34757674 0.21057823 0.2509127 -0.2752327 -0.29789093
2.3177507 -0.5821986 2.1098557 -0.33548266 2.3780482 -1.499149 1.9128368 1.5831944
-0.20584475 -0.20228115 -0.32899436 -0.30310062 -0.0357053 -0.032801718 0.21655187 -0.24419129
0.61329824 2.2366855 -0.3524193 -1.6741579 -1.7498871 -0.5454458 -0.4795914 1.3018576

l2.bias f4 [8]
00000000: df98 ed3e 0013 283f e922 f13e 80de 87be
00000010: 72e8 96be 931d 273f 7025 b7bc c282 9c3e
0.46405694 0.6565399 0.47096947 -0.26536942 -0.29474217 0.652795 -0.022356719 0.3056851

l3.weight f4 [22, 8]
00000000: 809c 23c0 c86c 903b 7e97 a03f 80c5 623f
00000010: 020b 353e 15f7 4ac0 2d14 a03e 113d 6bc0
00000020: 870b 0e3f 04bc db3d 9b6e 38c0 a817 37c0
00000030: 1d1e a9be 9591 e6be 101d 1d3d 6490 733f
00000040: dd11 b53e e3d4 993f b6a5 2bbe c89f ae3f
00000050: 001a 8a3b 8e08 88c0 c21b 5f3e c335 59c0
00000060: 58d1 28bf 74a5 2cc0 fd02 dabe 2607 873f
00000070: 7603 253e 7cf0 75bf 7cca e1bd 2674 89c0
00000080: f6ce 15c0 208b 99c0 77ed 9fbf 81a4 5dc0
00000090: cd18 4dbe f5a0 a63f d402 0fbe 9501 7dc0
000000a0: 1e4a 5fc0 131d d4c0 e4b4 843f de7d ad3f
000000b0: d55d 4dbe a0a8 c5bf 88a0 4c3d 3f66 a7bf
000000c0: 7783 b8be 6a49 96bf 78d3 433e d280 213f
000000d0: 0050 e93c 5b87 f3bf 38fe a8be b018 c8be
000000e0: dafb 2ac0 7276 fdbd 1098 82c0 be50 e23e
000000f0: 36ee 613e 3fb3 cf3f a449 9ebd e031 a6c0
00000100: 3a53 83be 06d3 f1be 73dc e4bf f63a b73d
00000110: 24e8 0b3e df32 ddbe 7822 95be 4c40 9cbf
00000120: 2e90 a3c0 5684 a03f 8cd0 bd3e f001 ca3e
00000130: c6db 4bbe c758 a6bf 2dc8 a43e 00c7 10bf
00000140: df24 8fc0 1143 243e 385d 8abf f33e 55bf
00000150: e5f2 6bbe f37b 483f 2c72 d73d 7c31 13bf
00000160: 8ac0 9c3f deb8 78c0 f513 73c0 8ba6 91be
00000170: 7359 0dbe 1e90 7bbf a7da 54be 5fe3 a03f
00000180: 1438 3dc0 1901 babf 80c1 203f e89e 35c0
00000190: e454 003e 8a77 703d 7455 fd3d 9d59 8fc0
000001a0: cccc 85bf 30e3 be3f 537f 1d3f 852d 11bf
000001b0: cabc 193e 251c d5c0 85b1 52be ef47 f13e
000001c0: 130d 5dbf 3da6 9c3f a583 e8c0 ba0e 23c0
000001d0: a8e0 8dbe d8f9 033f a863 9d3d a573 0ebf
000001e0: d53a 33bf db88 70bf 0550 223e 7bfc c9c0
000001f0: 10db 713d 25cb 963d 06de 223e c585 9c3d
00000200: 9c65 953f 14e5 8ac0 f1aa 61c0 c852 fc3e
00000210: 4012 0e3c 3108 a63c 405d b83b 63be adc0
00000220: 2adc 4a3f 2ee6 73c0 323d 34bf e969 533e
00000230: 0780 68be adaf c8bf 0028 9a3b 0e52 5abf
00000240: fd71 3b3f 716f 97c0 e2f6 adbd 7e45 d73f
00000250: a9b1 993e 9fc3 4bc0 3068 60bd f189 8fc0
00000260: d0d1 5bbf 16f6 603f cf2b 0dbf 3f56 29c0
00000270: 19f3 2fbe f057 2dbf 501f a83d 5de7 ba3e
00000280: 157d cb3f 64d3 a3bd 2977 fcbf 86ca b6be
00000290: aa90 2c3e bfd7 47c0 6ded 41be a908 5d3f
000002a0: d9c3 c23e 63a4 6bc0 663c 933f 78eb dabf
000002b0: 08ab eb3d f22a 37c0 5088 87bc 52b1 82c0
-2.556427 0.004407499 1.2546232 0.8858261 0.1767998 -3.1713307 0.31265393 -3.6756022
0.5548634 0.107292205 -2.8817508 -2.8608189 -0.33030787 -0.45032945 0.038357794 0.951422
0.3536519 1.2018093 -0.16762432 1.3642511 0.004214525 -4.2510443 0.21787933 -3.3939064
-0.65944433 -2.6975985 -0.42580405 1.0549057 0.16114601 -0.96070075 -0.11024949 -4.2954283
-2.340757 -4.798233 -1.2494344 -3.4631655 -0.20028992 1.301787 -0.13965923 -3.9532216
-3.4888988 -6.628549 1.0367703 1.3554037 -0.20055325 -1.5442085 0.049957782 -1.3078078
-0.360378 -1.1741154 0.19123638 0.6308719 0.02848053 -1.9025682 -0.33006454 -0.39081335
-2.6716218 -0.12376107 -4.0810623 0.44202226 0.22063527 1.6226577 -0.077288896 -5.1935883
-0.25649434 -0.4723131 -1.7879776 0.08946793 0.13662773 -0.43202874 -0.2912786 -1.2207122
-5.11135 1.2540386 0.3707317 0.39454603 -0.19908056 -1.2995843 0.32183972 -0.5655365
-4.473251 0.16041209 -1.0809698 -0.8329918 -0.23041876 0.7831413 0.105198234 -0.5749738
1.2246258 -3.8862834 -3.798093 -0.28447375 -0.13803653 -0.9826678 -0.20786534 1.2569388
-2.9565477 -1.4531585 0.6279526 -2.8378239 0.12532383 0.05870775 0.123698145 -4.479689
-1.0453124 1.4913082 0.61522406 -0.5671008 0.15013424 -6.6596856 -0.20575531 0.47125193
-0.86348075 1.2238232 -7.26607 -2.5477738 -0.27710462 0.51553106 0.076850235 -0.5564521
-0.70011646 -0.93958825 0.15850838 -6.3120704 0.059046805 0.073629655 0.15905008 0.07642702
1.1671634 -4.3404636 -3.5260584 0.49281907 0.008671343 0.020267578 0.0056263506 -5.4294906
0.79242194 -3.810924 -0.70405877 0.2064587 -0.22705089 -1.5678612 0.0047044754 -0.85281456
0.7322081 -4.7323537 -0.08494355 1.6818082 0.30018356 -3.1838148 -0.05478686 -4.4855886
-0.85867023 0.878755 -0.5514497 -2.645889 -0.17182578 -0.67712307 0.082090974 0.3650464
1.5897547 -0.07999304 -1.9723865 -0.35701388 0.1685206 -3.122543 -0.18938227 0.8634134
0.38040045 -3.6819084 1.1502807 -1.7103109 0.11507231 -2.8619962 -0.016544491 -4.0841455

l3.bias f4 [22]
00000000: cf3e 27bd db4a 06c0 6633 2f3f 9eef 1bbe
00000010: bc60 823e 3e25 e6be 4d17 e7be 93a8 413d
00000020: 6e71 05bf 03dc 57bf 526f 7ebe f407 d63e
00000030: 4f07 313f 7641 803f f926 bf3e 6708 cbbe
00000040: 2604 6d3e 7595 90bf 1bc4 3f3e 3c81 7c3d
00000050: 7f7e 03bf 03aa 493f
-0.040831383 -2.0983188 0.684378 -0.15228125 0.25464427 -0.4495029 -0.45134965 0.047279906
-0.52126205 -0.84320086 -0.24847153 0.41802943 0.6915178 1.0019977 0.3733442 -0.39654848
0.23146114 -1.1295611 0.18727152 0.061646685 -0.5136489 0.7877504
